backend/model.pth (torch, 206300 bytes, 10 tensors)

lstm.weight_ih_l0 f4 [256, 2]
000000 8b 20 19 3b 94 8a 11 bb 87 0c 0f 3e d4 69 d0 bc
       0.0023365344 -0.0022207843 0.13969623 -0.025441088
000010 ef a1 92 bd bc 7f b2 bd a4 78 07 bd ff a2 64 3c
       -0.07159793 -0.0871577 -0.033074036 0.013954877
000020 d5 65 80 bc 17 8a a8 bd 65 57 5c 3b e0 c5 0a 3e
       -0.015673557 -0.082294635 0.0033621427 0.13552046
000030 a3 90 89 bc fc d8 12 be 9b f9 de 3d bc 80 b8 3d
       -0.016792601 -0.14340585 0.10887452 0.09008929
000040 07 fe ac bd ee 38 4f 3d 14 63 c9 3c 9f 7c e9 3d
       -0.08446889 0.0505914 0.024583377 0.11400723
000050 e8 1b f8 3c 27 73 05 3b 70 ec a8 bc 0a dd 85 bd
       0.030286744 0.0020362826 -0.020620555 -0.065363005
000060 6c ff bd 3d a8 48 59 bd cb c9 00 3d ed 87 57 3d
       0.092772335 -0.053047806 0.031442445 0.052619863
000070 3b fc 0b bd c5 f3 c4 3d 97 c4 90 3d 9d b8 90 3d
       -0.034176093 0.09616808 0.070687465 0.07066462
000080 12 43 d2 bc f3 24 98 bd 80 25 59 3d fc 23 ba bd
       -0.025666747 -0.074289225 0.05301428 -0.09088895
000090 4c 72 a0 3d 11 6a f8 3c 9d f3 69 3d 85 81 7e bd
       0.078343004 0.030324014 0.057117093 -0.06213524
0000a0 d7 9f 40 3a 96 23 4c 3c ea c4 26 3d ea 12 0f be
       0.0007348037 0.012459656 0.040715136 -0.13972059
0000b0 82 fd 06 3c bf 01 fd bd b3 d0 58 bd df e9 d0 3a
       0.008239152 -0.12353849 -0.052933406 0.001593884
0000c0 2f 22 55 bd 44 6f 9e 3d 78 ff dd bd af 4f ff 3d
       -0.052034553 0.07736066 -0.108397424 0.1246637
0000d0 f6 08 c1 bb 74 a9 20 be 60 76 97 bd c2 17 45 be
       -0.005890961 -0.15689641 -0.07395625 -0.19247344
0000e0 a5 6d f5 3c ab 76 87 bd 9e 32 62 bd ff bf 14 3e
       0.02995951 -0.06614431 -0.055224054 0.14526366
0000f0 ee 39 8e 3d 02 6c 55 bd f9 f5 d2 3d 45 89 15 3d
       0.06944643 -0.052104957 0.10300822 0.036507864
000100 a0 21 35 3d cd f8 2c 3d 80 30 a1 bd 6d 6a 7c 3d
       0.04422152 0.042229462 -0.07870579 0.061624933
000110 09 ee 01 bd fe 83 08 be 12 ad 6e 3c c9 f9 14 be
       -0.03172115 -0.13331601 0.01456763 -0.1454841
000120 28 de 2b bd 85 98 7b bd c4 6f f0 3d 21 a7 4a bd
       -0.04195991 -0.06142475 0.117400676 -0.049475793
000130 f7 66 b6 bc 22 20 a8 3c c8 59 00 3e a7 2c a1 bd
       -0.022265894 0.020523135 0.12534249 -0.07869845
000140 90 32 0a 3e 22 7a 3d 3d 4e bb fd 3b 60 7b 1d 3b
       0.1349585 0.046259053 0.0077432757 0.0024029836
000150 d1 d5 4c bd 68 12 5e 3d 3f f6 5a 3c 56 3a 49 3d
       -0.0500086 0.054216772 0.013364374 0.0491279
000160 0d 1e 97 be fb 7c c2 bb 00 24 fe 3d 4c f8 16 bd
       -0.29515114 -0.005935309 0.1240921 -0.036857888
000170 ff 3b 36 3e 7d fa 8f 3d 85 dc 96 bd 8e f9 34 3d
       0.17796324 0.07030199 -0.073662795 0.044183306
000180 c1 af c7 3d e3 b8 c5 bd 2e e5 a1 bd 7f ec 0b 3d
       0.09750319 -0.09654405 -0.07905041 0.034161087
000190 32 a7 4f 3d ad cc ab bc c1 7f 07 3e d1 0a a1 3d
       0.05069656 -0.02097162 0.13232328 0.07863391
0001a0 47 c0 21 bd d9 be d3 3c 1f 96 20 3d db 1d 89 bd
       -0.03949001 0.02584784 0.039205667 -0.066951476
0001b0 43 71 3b 3d 0d 5c 97 bd 06 fb 63 3c ff 93 48 3c
       0.04576231 -0.07390604 0.013914829 0.012242316
0001c0 28 66 5a 3d 2d 65 17 3e b0 75 20 3d a2 2d 2f 3e
       0.05332008 0.14784689 0.039174736 0.17107251
0001d0 6d e8 6e bc 2c 4c 83 3d 10 e5 89 3d c2 22 12 3d
       -0.014581782 0.06411013 0.06733143 0.03567768
0001e0 c7 c4 45 bd f8 de 96 bc c8 a1 dd bd d2 81 c6 3d
       -0.048283365 -0.018416867 -0.10821873 0.0969273
0001f0 62 17 58 3d 90 59 ea bd 5e e7 17 3d 7f 1d b9 3d
       0.052756675 -0.11442864 0.037085883 0.09038829
000200 c3 eb 69 bc 7d 23 ce 3d 64 9d 66 3d c5 fa f6 3c
       -0.014277401 0.100653626 0.056302443 0.030148873
000210 dc 3f 48 bb 34 f8 34 3d e4 5e 37 bc 71 9f dd 3d
       -0.0030555641 0.044182017 -0.011192057 0.10821427
000220 7c 76 0a be 7e 24 95 bd e7 41 b4 3d 22 84 aa bd
       -0.1352176 -0.07282351 0.088016324 -0.083259836
000230 43 98 08 3e c0 6a 7b 3d 37 e9 81 bb e1 2a 34 3d
       0.13339333 0.0613811 -0.003964569 0.043986205
000240 fe 6b e2 3c 77 8a fc 3c 3f 89 4a 3b c4 ff 85 3d
       0.027639385 0.030827744 0.003090456 0.06542924
000250 91 75 7a bc 30 d4 81 bd 45 c6 a4 3c dd d0 0b be
       -0.015286819 -0.063393 0.020114074 -0.13653894
000260 31 10 e6 3b 31 91 2e 3d ec b1 9a bb 7a 69 e0 bd
       0.007020973 0.042618934 -0.004720917 -0.10957618
000270 7d 30 f9 3c 2d 22 f7 bd d5 cc ed bd c1 4b 8c 3d
       0.030418629 -0.120670654 -0.11611334 0.068503864
000280 b8 f8 69 3d e3 74 4c bc 9e 3f 0a be 9e 65 74 3d
       0.057121962 -0.01247904 -0.1350083 0.059667222
000290 09 a3 74 3d bc d2 10 3d 3f 66 83 3c fd ea 66 3d
       0.059725795 0.035357222 0.016039966 0.056376446
0002a0 cb df 8c 3d 1c 4b 07 be ca d8 ac 3d 3d b6 27 3e
       0.068786226 -0.13212246 0.08439787 0.16378112
0002b0 83 a5 0b 3d 28 19 9e 3d 3d 5d 0c 3e 86 cd d3 bd
       0.03409339 0.07719642 0.13707443 -0.10341935
0002c0 29 c0 29 3d 7c 37 9c bd 83 0e 00 be f3 8d fa 3d
       0.041443024 -0.0762777 -0.12505536 0.12234106
0002d0 fa 69 4e bd 1c 45 12 3c 21 21 df bc 3e 71 79 bd
       -0.050394036 0.00892761 -0.027237477 -0.06089901
0002e0 72 73 d7 3d a0 7b a6 3c 0d 3c d0 3b ab ec 55 3d
       0.10520066 0.02032262 0.006354815 0.052227657
0002f0 d7 67 1b be 8b 17 7a bd 57 8b 06 3e 19 a7 43 3d
       -0.1517633 -0.06105761 0.13139091 0.04776678
000300 3e 43 73 bd 09 4b 3f 3c 0d 85 de 3a 77 cc 6c bc
       -0.0593903 0.011675605 0.0016976908 -0.014453045
000310 9c f6 41 3d b4 65 80 bd c5 b9 06 be bb c4 31 3d
       0.047354326 -0.06269398 -0.13156803 0.043400507
000320 19 b9 c0 bd f5 a9 dc 3d d8 dd 2c bd d4 1f e1 bc
       -0.094103046 0.10774604 -0.042203754 -0.027480997
000330 d2 87 16 3e 44 b4 14 3c a8 e7 db 3d 73 58 4d bd
       0.14700249 0.009076182 0.10737544 -0.05013318
000340 db 6e 0c 3e 6e 9f 5b bc 54 6b da 3d 1a ed 2a bc
       0.13714163 -0.01340471 0.106650025 -0.010432506
000350 b0 47 5d bd da 48 45 3d 61 70 0b bd 26 68 92 3c
       -0.054023445 0.04816518 -0.03404272 0.017871927
000360 19 ea 04 3e ee 4c b8 bc 42 96 c1 3d 20 f2 43 3d
       0.12979926 -0.02249762 0.094524875 0.04783833
000370 d4 b5 43 3c f1 06 99 3c 58 b2 de 3c 55 47 77 3d
       0.011945207 0.018680068 0.02718465 0.060370762
000380 c2 eb ee bc 00 ea b4 3d f7 ae c6 3c e4 e2 df bd
       -0.029165152 0.088336945 0.024253352 -0.10931948
000390 a2 dc 46 3d d7 34 9b bd 15 f8 af 3d ad af 09 be
       0.048550256 -0.07578438 0.0859224 -0.13445921
0003a0 be 53 3c 3c aa b5 e0 3c f0 38 17 3e 19 ed d5 3d
       0.011494575 0.027430374 0.14767814 0.104456134
0003b0 ac 40 03 3e 64 4d a5 bd 5d dc 82 bd 5b cc 99 bc
       0.12817639 -0.08071402 -0.06389687 -0.018774202
0003c0 2b fb 10 3d 65 f1 81 bd fc ca cf 3d 24 eb 69 3d
       0.035395782 -0.063448705 0.10146138 0.057109013
0003d0 8a a6 4e 3d eb 24 8d 3c 39 eb 98 ba ee 78 10 3d
       0.050451793 0.017229518 -0.0011666782 0.035271578
0003e0 0f 67 5e bc 32 8e 8b 3d 50 a6 9b bd 77 59 b5 3c
       -0.013574376 0.06814231 -0.07600081 0.022137387
0003f0 d6 d2 af 3d c8 8d 53 3d 2d e8 02 3d 99 48 97 3d
       0.08585136 0.051648885 0.0319597 0.07386894

lstm.weight_hh_l0 f4 [256, 64]
000000 77 b2 b5 bd 6f 3a f4 bd ec 90 97 3d e0 31 cc bd
       -0.0887193 -0.11925208 0.074006885 -0.099704504
000010 80 7c 94 3d 3d 1a a4 3d cb 50 12 be b5 98 81 bd
       0.07250309 0.08012817 -0.14288633 -0.06327955
000020 d7 07 80 3d ba 28 43 be 8d 2f 39 bc 54 30 6a 3c
       0.06251495 -0.19058505 -0.011302841 0.014293749
000030 24 3b 98 bd 36 06 ec 3b e8 47 40 bd 11 75 0e 3e
       -0.07433155 0.007202889 -0.046943575 0.13911845
000040 3c 5c cf bc 35 69 8e 3d 61 6a b8 3c f5 52 48 3e
       -0.025312535 0.069536604 0.022511663 0.19562896
000050 79 6a a1 bd 08 f5 3c 3d c2 c0 ad 3c 9d ee 11 bc
       -0.07881636 0.046132118 0.021210078 -0.0089069875
000060 6d 34 39 3e 26 7b ec bd 4a 83 34 3d 35 d8 8b bd
       0.18086405 -0.11546926 0.04407052 -0.068283476
000070 24 11 d1 bd 81 e1 68 bc 8f 95 e1 bd 7d 8a c3 3d
       -0.102083474 -0.014213921 -0.11014854 0.09547899
000080 3b 04 26 3e fe 56 98 3d 06 76 ee bc f7 f5 75 bd
       0.16212551 0.074384674 -0.029109012 -0.060049023
000090 16 e9 b3 3c ab 17 0e be 2e a6 72 3d d5 ad 0d be
       0.02196173 -0.13876216 0.059240513 -0.13835843
0000a0 04 4d 90 bd db 10 73 bd d4 0b 49 3e 18 3d 82 3d
       -0.070459396 -0.059342247 0.19633418 0.06359309
0000b0 96 70 ee bc 82 9f 3a bd b2 86 a8 bd 67 98 d3 bd
       -0.02910642 -0.045562275 -0.08228816 -0.10331803
0000c0 83 60 c4 3d 9f f0 0b 3d fa d2 a0 bd 3e 73 5b bd
       0.09588721 0.03416502 -0.078527406 -0.0535767
0000d0 77 b0 86 bd 39 00 c0 3d 56 44 d8 bd 52 ec ea bd
       -0.06576627 0.093750425 -0.10559909 -0.11470856
0000e0 f2 b2 91 3d 6a 7e 46 bd 68 bc 2a 3d 16 db 10 3d
       0.07114209 -0.0484604 0.041683584 0.035365187
0000f0 f4 ae 70 bd 5f 16 24 3e 0f 08 8a 3c 2d 97 e1 bc
       -0.0587606 0.16024159 0.016849546 -0.027537907
000100 f1 26 22 3d 11 d8 7a bd f1 43 d1 3d 44 6a 1a bc
       0.03958792 -0.061241213 0.10218037 -0.00942475
000110 25 e9 22 3d 92 d4 ab 3d 46 6e 61 bd b5 2b 03 bd
       0.039773125 0.08390154 -0.055036806 -0.032024104
000120 76 32 8a 3d 87 f2 be bc c2 5d 8f bc bc 1f 09 be
       0.06747906 -0.023309005 -0.017500762 -0.13391012
000130 5e 0d 36 bd 24 c9 af bd 48 c4 a2 3c 69 8a 2e 3d
       -0.04444634 -0.085832864 0.019868985 0.042612467
000140 73 df 4a 3d 8a 8f eb bd 04 65 15 3c c4 94 03 be
       0.049529504 -0.11501987 0.009118322 -0.12849718
000150 4f f3 c4 3d d1 13 33 be e5 d8 f5 bc d1 c9 4e 3b
       0.0961672 -0.17488028 -0.03001065 0.0031553397
000160 27 69 8a bd 04 c3 9f bd 4b a8 3e 3d f5 95 76 bd
       -0.067583375 -0.07800868 0.046547215 -0.060201604
000170 25 37 61 bc 6f f8 34 bb c1 d2 48 3d 07 61 d2 3d
       -0.013746058 -0.0027613898 0.049029116 0.10272413
000180 73 77 6c 3d b7 b5 59 3d d6 86 8b bc 81 e1 3a bd
       0.057731103 0.053151812 -0.017032068 -0.045625214
000190 a0 2f 02 3e 0b 73 06 3d 49 b3 d6 bb 9e 82 34 bd
       0.1271348 0.032824557 -0.006552134 -0.04406988
0001a0 56 70 94 bd 5f 59 1a be a8 a4 40 ba a8 d3 a6 3d
       -0.07247989 -0.15073155 -0.00073487544 0.08145839
0001b0 86 12 45 3e 4f 76 54 bd 7b 21 11 3d 9a 97 03 3d
       0.19245347 -0.05187064 0.03543232 0.032127
0001c0 ec 5b 13 be e0 64 2c bc 1f e9 c2 bd 93 dc eb 3c
       -0.14390534 -0.010522097 -0.095171206 0.028791701
0001d0 fb 9f ad bd 8a 25 67 3d 4d 1f 8b 3c 1c 96 87 3d
       -0.084777795 0.056432284 0.016982699 0.06620428
0001e0 56 55 2b 3d 90 a0 bb bc 65 e2 05 3e e5 0d 9a 3c
       0.04182943 -0.02290371 0.13074644 0.018805454
0001f0 28 bb 28 3e 8a fe 51 bd 1d 34 23 3d d9 6f e4 3d
       0.16477644 -0.051268138 0.03984462 0.11154146
000200 40 be fe bc b8 9e 46 bd cc c2 5d 3c b2 1b ca bd
       -0.031096578 -0.04849121 0.013535213 -0.09868564
000210 df 11 75 bc 14 a8 b8 3c 59 27 dd bd 11 6c ad bd
       -0.014957874 0.022541083 -0.107985206 -0.08467878
000220 e8 66 f9 3d 60 d7 0a 3d cb 45 a6 3d d1 9a b1 bd
       0.12177831 0.033896804 0.08118781 -0.08672107
000230 21 2c 85 3c a7 51 8d bd 0a 30 b2 3d 5c 06 06 ba
       0.016256394 -0.069003396 0.08700569 -0.0005112642
000240 11 7b 58 bd f3 75 69 bd 02 64 1a bd fd 04 c8 3d
       -0.05285174 -0.05699725 -0.03769303 0.097665764
000250 e9 73 4a bd e1 e3 82 be 39 bb 8e 3d 40 52 44 3e
       -0.049426947 -0.25564483 0.06969304 0.19172001
000260 24 dc 00 bc b2 1f 58 be 1e c7 55 3d 4c 98 48 3d
       -0.007864986 -0.21105841 0.052191846 0.048973367
000270 4e 3f 20 3e 10 97 55 3e d0 56 bd 3d 59 1d 4d 3c
       0.15649149 0.20858407 0.09245074 0.012519204
000280 94 cd dd 3c 67 7b 6c 3d c7 cc f6 bc 78 65 22 3b
       0.027075566 0.057734873 -0.030126942 0.0024779718
000290 f1 dd 07 be 00 90 0e ba 77 dd da 3d a8 53 f4 bc
       -0.13268258 -0.0005438328 0.10686772 -0.029825047
0002a0 66 fe 61 3d 4b 3d 05 3d 35 e6 2f 3e 86 58 ce 3c
       0.055174254 0.032529157 0.17177661 0.025188696
0002b0 f4 0f 88 be 48 23 29 be 56 a5 a7 3c 13 1c f3 bd
       -0.2657467 -0.16517365 0.02046458 -0.11870589
0002c0 0a 36 e5 3d 83 92 96 bd c0 64 f8 3c 2d 09 65 3d
       0.11191948 -0.07352164 0.030321479 0.055916954
0002d0 de c9 3e 3e bc d2 9e bc 25 03 cb bc d7 22 34 bc
       0.18631694 -0.019387595 -0.024781773 -0.010994635
0002e0 fe 49 bd 3b 55 26 78 be 82 16 8e 3d f9 60 2a 3e
       0.005776643 -0.24233373 0.06937887 0.16638555
0002f0 f3 b8 00 bd 1b 97 4c 3e 70 7a 13 3e a0 5c 20 be
       -0.03142638 0.19979517 0.14402175 -0.15660334
000300 63 b3 e2 bd bf 2d 7f bd 87 b0 0d bd a2 81 b8 3c
       -0.110693716 -0.062299486 -0.034592178 0.022522751
000310 70 e1 d4 bd 20 4e 3b bd 57 35 6e bc 64 21 4f be
       -0.10394561 -0.045728803 -0.014539084 -0.20227581
000320 02 13 f9 3c 9b 85 58 bd ec a4 9e bd 4d e7 9b 3d
       0.030404571 -0.05286179 -0.077463 0.076124765
000330 e7 7a 02 3c de b3 12 be db 78 17 bd 5a 1c a0 bd
       0.0079638725 -0.14326426 -0.03698049 -0.07817908
000340 fa 73 6b 3c ec 5a 9c 39 48 5f fd 3d 79 89 08 be
       0.014370913 0.0002982238 0.12371689 -0.13333692
000350 2c 84 87 3d ee 4e 14 3e 93 e3 33 3d 32 ad fa 3d
       0.06617007 0.14483234 0.043918204 0.12240066
000360 87 6e 0f bc e8 53 40 bc 73 f4 d3 bd 76 71 e9 3c
       -0.008754379 -0.011738755 -0.10349359 0.028496485
000370 bf bb 9d bd ec 9a b8 3d 8d 49 d8 bd e3 09 4c be
       -0.07701825 0.09013924 -0.10560904 -0.19925646
000380 89 0e 30 3e c1 44 16 bd 15 28 00 3e 38 ee 12 3e
       0.17193045 -0.036686663 0.1251529 0.14348686
000390 46 ea 87 bd 4f 51 29 3d 80 aa 13 be 96 55 fc bd
       -0.06636481 0.041337308 -0.1442051 -0.12321012
0003a0 3a 59 61 bb f0 04 88 bd c2 35 30 be 87 9c da 3d
       -0.0034385459 -0.06641567 -0.17208007 0.106743865
0003b0 7d ee 11 be ce e9 e9 3b 95 31 8a 3d 34 67 f7 3d
       -0.14251132 0.0071384674 0.06747738 0.12080231
0003c0 22 5b 2b 3c 8a 40 28 3e 0e 43 b6 3d a2 e4 07 bc
       0.0104587395 0.1643087 0.088995084 -0.008294256
0003d0 72 97 0a be 47 20 2e bd 6f 09 75 3d e3 62 18 bd
       -0.13534334 -0.04251125 0.05982345 -0.03720368
0003e0 35 57 ce 3c b9 a8 e4 3b 7c cd e9 3c 99 67 39 bb
       0.025188068 0.006978121 0.028540365 -0.0028290509
0003f0 82 c6 7d be 7c 8a 70 3c 17 8f e7 bd 51 9f 9a bd
       -0.24782756 0.014681455 -0.11306589 -0.075499184

lstm.bias_ih_l0 f4 [256]
000000 fd ef 90 bd 8e 01 bb 3d 9b 88 29 3d 2d 6e 15 3e
       -0.07077024 0.09131156 0.041390043 0.1459281
000010 32 13 54 ba 60 07 c6 3d f5 02 17 bd f1 30 af bc
       -0.00080900185 0.096693754 -0.036868054 -0.021385642
000020 ab b2 9e bc dc a0 a6 3d cf b1 08 3d 7b 5e 16 3e
       -0.019372305 0.0813615 0.033372696 0.14684479
000030 f2 b8 ba 3d 61 be 8e 3d e9 2c 4f 3d aa 0e 50 bc
       0.09117307 0.06969906 0.05057994 -0.012698809
000040 c7 d2 0a 3e 16 e3 a0 bb d3 8f 05 be 85 ef 22 3e
       0.13556968 -0.0049098833 -0.13043146 0.15911682
000050 a5 80 6d bc 2e 21 a6 3d ae 0d 1b 3e ad 74 cd 3c
       -0.014496003 0.08111797 0.15141937 0.02508005
000060 d9 fd f1 bd 1c ad 14 bd f9 30 12 3d 86 76 cd 3d
       -0.11815996 -0.036297902 0.035691235 0.10032372
000070 59 0f bb 3c 3c 8d 4f bd b3 09 14 bd 0d 71 7a 3d
       0.022834467 -0.0506718 -0.036142062 0.06114297
000080 b1 ad 3b 3e bf 81 3b 3d ad 99 93 3d 32 e7 9a 3d
       0.18327977 0.045778032 0.07207046 0.07563628
000090 c1 16 9c 3d b1 04 24 3e 86 75 68 3e 13 60 4e bd
       0.076215275 0.16017415 0.22701082 -0.050384592
0000a0 26 31 71 bd 98 28 26 bd e8 a8 98 3d 91 fb 0a 3d
       -0.058884762 -0.040566057 0.07454091 0.03393132
0000b0 03 6d a9 3d 30 04 6a 3c bb 56 e0 3c 67 da 9a 3c
       0.082727455 0.014283225 0.027385106 0.01890297
0000c0 aa 4b b0 bd a9 b9 20 bd 25 39 a5 3d dd 65 2a bd
       -0.08608182 -0.03923956 0.0806754 -0.04160105
0000d0 e4 5e f5 bd 07 0a bd bd 5b e4 3c 3d 74 40 f4 bd
       -0.119809896 -0.09230428 0.046116214 -0.11926356
0000e0 76 dd 02 bc e8 72 a9 3c b9 6b 05 3c cc c0 22 3e
       -0.007987371 0.020684674 0.008143359 0.15893859
0000f0 6c f6 8e bd cd 95 86 3c 33 71 dc 3d 04 f3 c0 3b
       -0.06980595 0.016428852 0.107637785 0.0058883447
000100 39 ad 95 bd 47 29 28 bd 6b d2 27 3e 3d 76 06 3e
       -0.0730843 -0.04105499 0.16388862 0.13131042
000110 64 c9 22 3d ec 3f 42 bd 71 36 3f bd de 31 35 3d
       0.039742842 -0.047424242 -0.04668278 0.04423701
000120 0a ac a0 3d 14 cf 99 3d cb 22 28 3e f7 70 62 3c
       0.07845314 0.075102 0.16419522 0.013820878
000130 84 d4 da 3b 95 8e ab bd 24 0a db bc 83 df c4 3d
       0.006678166 -0.08376805 -0.026738234 0.09612944
000140 8c 17 52 3d 94 1c de 3d 35 0e 70 bd c9 38 07 3e
       0.051291987 0.108452946 -0.0586073 0.13205256
000150 dc 6a 10 3d ed f4 03 3e fd 22 2a 3e 14 6f fa 3d
       0.03525816 0.128864 0.1661491 0.12228218
000160 32 0a 87 3d 35 0b f3 3b ff 54 73 bd 41 21 66 bc
       0.065937415 0.0074171075 -0.05940723 -0.014046014
000170 02 6a 09 be 3d 49 13 bd b9 1f 6d bd b0 0c 88 bd
       -0.13419345 -0.035958517 -0.05789158 -0.06643045
000180 94 fd f4 3d 49 03 73 ba 4d 33 fe bc 64 87 05 be
       0.11962429 -0.0009270204 -0.031030321 -0.13039929
000190 65 16 f9 3d 3c 6f 17 bd 71 4a 95 3d 92 1c fd bb
       0.121624745 -0.036971316 0.07289589 -0.007724353
0001a0 f5 27 9e 3d 93 31 93 3b 83 39 d7 3d ee 02 b6 bd
       0.07722465 0.0044919937 0.10509016 -0.088872775
0001b0 7e 16 b3 3d ce 5f 19 3e 43 93 b5 3c 84 d4 78 bd
       0.087445244 0.14977953 0.022164946 -0.060749546
0001c0 71 7c 87 3d 5e ef c7 bd 7e 66 31 3e 01 76 75 bd
       0.06615532 -0.097624525 0.17324254 -0.05992699
0001d0 ba 40 04 3b e3 d3 6b bd ac da 26 3d 9e 81 0b 3e
       0.0020180182 -0.057575118 0.040735886 0.13623664
0001e0 ff c5 d5 bc 20 d6 28 bd 73 c3 a8 3c 2e 56 66 b9
       -0.026095388 -0.04121983 0.02060101 -0.00021966614
0001f0 3f ab 0f 3e ec a6 cb 3b 69 0b dd 3d 8f 98 d1 3d
       0.14030169 0.006214967 0.10793192 0.10234176
000200 c9 98 f3 bb da 8b d0 bd c8 e0 d1 bd 05 d4 3e bc
       -0.007433985 -0.101829246 -0.10247952 -0.011647229
000210 65 a3 61 bd 01 89 b4 bd 92 2e 24 be 20 c7 3d bd
       -0.055087466 -0.08815194 -0.1603339 -0.04633248
000220 d7 2c b6 bd c4 66 02 be 47 bf ee 3d d1 12 21 bd
       -0.08895271 -0.12734514 0.11657577 -0.039324585
000230 0a 28 fe bd 9e 3a 80 bd cb db 5a 3d d3 0a 8e 3c
       -0.124099806 -0.0626118 0.053432267 0.017339146
000240 63 94 0c be 6f 66 e1 bd 42 c7 d7 bc dd c9 23 be
       -0.1372848 -0.11005866 -0.02634013 -0.15994973
000250 e0 74 f4 3d 9a 7e e5 bd 0f 79 75 3c 62 71 bb 3c
       0.11936355 -0.11205788 0.014982476 0.022881214
000260 a0 50 39 3c e0 1e f1 3d 88 7e 58 3d b9 a2 26 3d
       0.011310726 0.11773467 0.052855045 0.04068253
000270 bf e1 1e bd 45 6a 96 3d 37 5a c6 3d 94 03 0e 3e
       -0.038789507 0.07344488 0.09685176 0.13868552
000280 94 6a f3 3d 3a 7d 03 3d 15 fc 30 3d f8 8a 73 bd
       0.118855625 0.032101847 0.043209154 -0.059458703
000290 5c b1 5a bd 9a 9a 84 bd 5a 99 2f bd 83 ee 8a 3d
       -0.0533918 -0.064748004 -0.042870857 0.06783774
0002a0 83 27 18 3d 16 be aa 3d 26 d7 0c be a2 dd 00 3e
       0.037147056 0.08337037 -0.13753948 0.12584546
0002b0 2a 67 b7 bd 87 be 41 3c 87 a5 35 bd d3 08 7d bd
       -0.08955224 0.01182521 -0.044347312 -0.061775994
0002c0 9a f4 dd ba 64 05 8d 3c d8 d4 25 bd 3d fa 4b bc
       -0.0016933859 0.017214485 -0.040486187 -0.012449798
0002d0 e2 84 55 3d 4e ea a1 bd 2a f7 04 3e ec f5 37 bc
       0.05212868 -0.07906018 0.1298491 -0.011228066
0002e0 1d 14 13 3d a8 c0 a9 bd 5a f3 9d bd 7e 57 45 3d
       0.035907853 -0.082886994 -0.07712431 0.048179142
0002f0 eb 05 48 3d 65 a1 e5 ba 76 2e cf bd d4 92 76 3c
       0.04883377 -0.0017519413 -0.101162836 0.015049655
000300 40 3c 1d 3e c8 5f b6 bd 16 89 d2 3d 8e 3b d3 3d
       0.15355015 -0.089049876 0.10280053 0.103140935
000310 08 a7 eb 3c 7c 01 83 bd 08 95 d3 3d 13 a7 f1 3d
       0.02876617 -0.063967675 0.1033116 0.11799445
000320 cc 1b 1f 3e dd 1a f7 3b 25 ef 54 3d 94 54 32 3e
       0.15537947 0.007541044 0.05198588 0.17415076
000330 bd c3 09 bc 2f ed 37 3d e3 97 40 bd 22 12 3e 3c
       -0.008408484 0.04490393 -0.04701985 0.011601003
000340 41 9a 21 3c 3b 2d ad 3d a1 c8 11 ba 13 63 a4 bc
       0.009863437 0.08455893 -0.0005561207 -0.020066774
000350 0c 2d 1f 3e 21 4c a4 3d bb fa 79 3e e5 88 ff 3d
       0.15544528 0.08022333 0.24412052 0.124772824
000360 20 e6 87 3d 9a 05 ea bd 82 16 1d bc bd 9a e2 3a
       0.0663569 -0.1142685 -0.009587886 0.0017288547
000370 1a 66 bf 3d f3 60 12 3e ac 79 b6 bd ba a3 01 bd
       0.09345646 0.14294796 -0.08909926 -0.031650282
000380 74 0c 4e 3e 72 c1 a8 3d b6 f9 8d 3d 40 7c 98 bd
       0.20121938 0.08240022 0.06932394 -0.07445574
000390 97 09 a5 3d 4d 1c 46 3e 9c 9f a6 3d 5c ee 5e bb
       0.0805847 0.19346733 0.08135912 -0.0034016585
0003a0 21 0e 19 3e 02 61 b8 3c c1 db a2 bd 7b fb be 3c
       0.14946796 0.022507194 -0.07952071 0.023313275
0003b0 60 9a f4 bb 60 fb 10 bd 92 76 e1 3d 3c 19 1f be
       -0.007464692 -0.03539598 0.110089436 -0.1553697
0003c0 19 e9 c4 3a 8b 4a cd bd b3 a5 00 3d 8b 5d 17 3d
       0.0015023082 -0.100239836 0.031408023 0.036954444
0003d0 a1 03 de bc 62 02 64 bd cb cc 19 3e 00 f2 f2 bd
       -0.02710134 -0.055666335 0.15019529 -0.11862564
0003e0 84 aa c0 3d 2e 2d 8b 3d 70 78 40 bd 02 d2 44 bd
       0.09407523 0.06795727 -0.04698986 -0.04805184
0003f0 c2 64 72 3c bb 83 f6 bb 9c 30 b7 3d 4b 53 ef bd
       0.01479453 -0.0075230277 0.089448184 -0.11685809

lstm.bias_hh_l0 f4 [256]
000000 5b 47 a7 bd d8 09 58 bc 1c 0f ba 3d 58 58 7f bb
       -0.08167907 -0.013185941 0.09084913 -0.003896257
000010 a9 4c 65 3e 7a d3 05 be 85 52 83 bd c8 ba 62 bd
       0.22392525 -0.13068953 -0.06412224 -0.05535391
000020 0f f6 a1 3d 44 58 ea bd fe bd ce 3d d7 6f 25 3e
       0.0790826 -0.114426166 0.10094832 0.16155945
000030 f3 6e 17 3e 7d 99 b9 bd 8c e5 9d bc 36 d9 a0 bd
       0.14788418 -0.09062479 -0.019274496 -0.0785393
000040 b3 c8 ad 3d e6 14 ac 3d 0d c4 0e bc c6 6a 91 3d
       0.08485546 0.084024236 -0.008713734 0.071004435
000050 af 6c 45 3e 00 c3 0c 3e 1c 29 6f 3e d5 8a 9d 3d
       0.19279741 0.13746262 0.23355526 0.07692496
000060 84 d9 e0 3b e0 2b 9e bd ab 61 0e be ed 37 9f 3d
       0.0068618674 -0.07723212 -0.13904445 0.07774339
000070 8d d2 9b bd 5d 46 b6 3d ba 94 e4 bd 57 87 24 3c
       -0.07608519 0.089001395 -0.1116118 0.010042033
000080 65 b8 28 3e 9f 2f f6 3c 09 ab e7 3d 28 d2 af bd
       0.16476591 0.030052004 0.11311919 -0.08585006
000090 a5 e6 05 3e 36 f9 da 3d 8f d0 8f 3c 12 ea 29 3e
       0.13076265 0.106920645 0.017555503 0.16593197
0000a0 5b 2a d3 bd e4 38 7f bd 87 92 ef 3d 02 0e d7 bd
       -0.10310813 -0.062310115 0.1169787 -0.10500719
0000b0 69 8b a5 3d c0 5c ad 3d 01 ac 8f bc c0 c0 d1 3a
       0.08083231 0.08464956 -0.017538073 0.0016002879
0000c0 fc 8c 49 3d 66 0c 15 bd cc 79 11 3e 06 9a ef 3d
       0.04920672 -0.036388777 0.14206618 0.116992995
0000d0 2c d0 84 bd ef 9e 3c 3c 28 0b 0e 3e f6 25 9b bd
       -0.06485018 0.011512502 0.13871443 -0.075756
0000e0 af 27 29 bd 59 a2 a2 3d 24 d5 15 3e 17 cb 86 bd
       -0.04129761 0.079411216 0.14632088 -0.06581705
0000f0 99 90 ec bd 72 36 05 bc 73 a6 88 bd f0 09 ac 3d
       -0.11551017 -0.008130657 -0.06672373 0.08400333
000100 72 9a 07 3c 17 cb ca 3d d5 13 c3 bc e7 28 b3 bc
       0.008276569 0.099020176 -0.023813168 -0.02187009
000110 35 e4 7a bd bf 88 85 bd e1 4d d4 3d ef 9a bd bb
       -0.06125279 -0.06520223 0.10366417 -0.005786292
000120 54 bf 33 3d 32 bb bd bd b0 1f ae 3b 40 f4 d9 bc
       0.043883637 -0.0926422 0.005313836 -0.026605725
000130 b5 e2 67 3d 0a 7d f4 bc 0d 14 1c bd 3d fd a9 bd
       0.05661269 -0.02984478 -0.03810506 -0.083002545
000140 c2 d1 1a bd 3b 72 7a 3d b6 a8 d8 3d e1 d9 57 3b
       -0.037797697 0.061144095 0.10579054 0.0032936262
000150 98 33 1e 3e 51 96 84 3d 87 bc e3 3b c0 61 05 3c
       0.15449369 0.06473983 0.0069499644 0.008140981
000160 48 4f b2 bd 5c 19 b1 bd a6 a6 26 3d 1f 89 b8 3c
       -0.08706528 -0.08647415 0.040686272 0.022526322
000170 d3 2f 18 bc 88 63 13 3d 80 48 eb bc 5b 0f 19 be
       -0.009288746 0.035983592 -0.028721094 -0.14947264
000180 a2 18 2d 3e bd c8 03 3e 5d 47 73 ba ad b2 45 3d
       0.16903928 0.12869544 -0.00092803483 0.0482661
000190 10 2c c3 3d b9 2c 9c 3d 3d ed 7d 3d 85 48 f8 3d
       0.09529889 0.07625718 0.061993826 0.12123207
0001a0 b3 0d e3 3d 13 77 8c bd 45 9d 4a bd 15 f9 fb 3b
       0.11086597 -0.06858649 -0.04946639 0.007689605
0001b0 95 94 77 bc b3 1b eb bc 78 d8 dd 3d fc e2 3e be
       -0.015111108 -0.028699731 0.10832304 -0.18641275
0001c0 d7 48 db 3c 8e 9b b8 bd 50 70 9b 3d 0c b8 54 3d
       0.026768131 -0.09014045 0.07589781 0.051933333
0001d0 8d a9 92 bd bb 58 83 3c b9 59 a8 bc f1 4c 2e 3b
       -0.071612455 0.01603352 -0.020550596 0.0026596154
0001e0 f3 97 6a 3d 5a ba 50 3c 9e ac d1 bb 81 b1 2f bb
       0.057273816 0.012739742 -0.0063987514 -0.0026808681
0001f0 d9 65 ca 3c dd 5f 82 bd 09 89 d1 3d 45 bb a9 3d
       0.024706768 -0.06365941 0.102312155 0.08287672
000200 48 5a 47 bc 8a ef 22 be 25 df 97 3c aa ba 86 bd
       -0.012167521 -0.1591169 0.01853902 -0.06578572
000210 cf c7 5a 3d 84 b1 d5 bc 85 c1 98 bc 3e 21 ef bd
       0.05341321 -0.026085623 -0.018646965 -0.11676262
000220 ed b5 88 3d 3a 39 87 3c 91 49 05 3e 8f b6 b7 3d
       0.066753246 0.01650678 0.13016345 0.08970367
000230 c7 1e b7 bd c1 f8 f6 bd 18 9b f2 bd 33 d3 49 3e
       -0.08941417 -0.12059165 -0.11845988 0.19709472
000240 79 3e fd bd 92 8a 3b be e8 46 39 bc 10 76 f7 bd
       -0.12365431 -0.18314579 -0.011308409 -0.120830655
000250 30 6b a3 3c 28 a0 8f bd 0f fd 2a 3e fc db 53 ba
       0.019948572 -0.07012969 0.16698097 -0.00080817915
000260 92 12 e5 bd 66 14 b9 3d 5b 64 cc 3d 11 67 cf bd
       -0.11185183 0.09037094 0.09980079 -0.1012708
000270 4f 9c 50 3c 33 2f b4 3c 97 76 41 3e dc ea a7 bd
       0.012732579 0.021995163 0.18892895 -0.08199093
000280 8a d8 5f 3d 98 ac fa bd 33 9d 42 3d 72 76 d8 bc
       0.054649867 -0.12239951 0.047513198 -0.026423667
000290 4c a6 17 3d 45 73 80 bc f7 a3 e8 3d f5 77 87 3d
       0.037023827 -0.015679965 0.11359399 0.06614677
0002a0 b9 5f e4 3d d8 f8 2a 3d 90 4d c9 bd a6 6d e7 3d
       0.1115107 0.041741222 -0.09829247 0.11300211
0002b0 9a ad 0c be 66 1c f9 bd da 89 1d be d1 25 9c 3c
       -0.13738099 -0.1216362 -0.15384617 0.019061001
0002c0 8a f1 03 3d c7 24 12 bd 61 71 02 be e0 43 62 bd
       0.03221277 -0.035679605 -0.12738563 -0.055240512
0002d0 28 80 50 bc cc 39 b4 bd 5d 8c 03 3e 12 67 8e bd
       -0.012725867 -0.088000864 0.12846513 -0.06953253
0002e0 55 d3 1f 3d 68 ea ea bd 3b 28 b2 3b dc 52 db 3d
       0.0390199 -0.11470491 0.0054369248 0.107091635
0002f0 93 2e 53 bd 9c dd 9d 3c 00 a1 a5 38 ef 37 66 bd
       -0.05155809 0.01927071 7.897802e-05 -0.056205686
000300 0e 31 14 3e 1a 07 1d bd 52 b5 d9 3c 29 3f d4 3b
       0.14471838 -0.03833685 0.026575718 0.006477256
000310 71 99 10 3e 4b 16 8d bd 85 7e a7 3b 48 79 d6 3d
       0.14121033 -0.06889018 0.005111518 0.10472351
000320 17 9f 2c 3e bf 94 4f 3b 6d fe c1 bd e3 e5 09 3e
       0.16857563 0.0031674353 -0.09472356 0.13466601
000330 f6 14 2c bd c7 30 c9 3c cf be 03 be 15 1b 8d 39
       -0.042012177 0.024559392 -0.12865756 0.00026913793
000340 b9 14 10 bd 9c a0 d1 3d 68 43 c6 3c 72 8a 95 3d
       -0.035176013 0.10235712 0.024202064 0.07301797
000350 03 47 9e 3d a6 0e 49 3e 4a 2f 1b 3e aa db 3b 3d
       0.07728388 0.19634494 0.15154758 0.045863785
000360 22 66 8f 3c 7b 63 86 3c 23 ff 6e bd 78 ed 0d 3e
       0.017504755 0.016404858 -0.058348786 0.13860118
000370 22 2e 9f 3d 87 08 81 3e a7 34 26 bd d1 a1 61 bc
       0.07772471 0.25201818 -0.040577557 -0.01377149
000380 92 64 37 3e c6 a4 31 3d b3 ba d7 bc ab 94 d3 bc
       0.17909458 0.04337003 -0.026334142 -0.025827726
000390 a7 31 c9 3d 34 49 fc 3d c4 c1 9e 3d dd 8c 0c 3e
       0.098239236 0.1231865 0.077518016 0.1372561
0003a0 68 b6 a4 3d fa 2a 9c bc 70 b8 b6 3c 2f a5 0c 3d
       0.08042604 -0.019063462 0.022304744 0.03433722
0003b0 9e 14 8e 3d e4 95 9a bd 7a 99 8d 3e 7f 92 c3 bc
       0.06937526 -0.075481206 0.27656156 -0.023873566
0003c0 ce f6 38 3d ef 00 81 3d d9 94 4f 3d 69 e5 fd 3d
       0.045157246 0.06299006 0.05067906 0.12397272
0003d0 31 67 07 be 10 69 0e 3e 7a eb 97 bd d0 16 cd 3d
       -0.13222958 0.13907266 -0.074179605 0.10014117
0003e0 be c8 63 3e 4c 76 d5 3d a4 78 7d 3d 4a 6a 79 3d
       0.22244546 0.10422954 0.06188263 0.06089238
0003f0 dc 35 04 3e 0d 17 c5 3d ca 66 a4 3d 94 89 f6 bd
       0.1291117 0.09623537 0.08027418 -0.1203796

lstm.weight_ih_l1 f4 [256, 64]
000000 ce a2 c3 bd 4a cd 0d bd 1a b3 97 3d 36 49 8b bb
       -0.09552537 -0.034619607 0.07407208 -0.004250671
000010 3c 4e e5 bd c7 b6 a5 3d 38 5b f6 3d 54 7e d2 3d
       -0.11196563 0.08091503 0.12029117 0.102780014
000020 d3 e2 ac bb 83 3c 91 bd 9e 3b 4a 3d 1c 90 f8 3d
       -0.005276063 -0.0709162 0.04937326 0.12136862
000030 4a 07 12 3b 1f 1a 3d 3d be 3c ad bd 24 ac 3c 3e
       0.0022282177 0.04616749 -0.08458851 0.18425041
000040 80 39 1e be 03 5f b3 bd d6 46 19 3e 1d 54 09 be
       -0.15451622 -0.087583564 0.14968428 -0.13410993
000050 a9 4f 4c 3e 79 09 57 3c 5b 42 00 3d ca 78 1c bd
       0.19952263 0.013124817 0.03131328 -0.03820113
000060 ef 5e 2b be 8f 81 b5 3d 6d f7 bf 3b 38 4a 19 be
       -0.16735433 0.08862602 0.005858353 -0.14969718
000070 e0 f2 1f be 5d 38 2f 3e 32 8c 01 3c 34 ec 03 bd
       -0.15619993 0.17111345 0.00790696 -0.032207683
000080 16 bb e1 3d 39 07 ff bc 93 ec cd 3d 27 3b f4 3d
       0.11022012 -0.031131374 0.100548886 0.11925345
000090 b7 e4 37 bd 4c f4 d5 bd ae e9 f9 bd a0 86 04 3d
       -0.044895854 -0.104469866 -0.12202774 0.03235495
0000a0 c5 06 05 be 61 75 95 bd de 9b ee 3d 64 ea 41 bd
       -0.12990864 -0.07297779 0.11650823 -0.047342673
0000b0 d3 59 02 be 77 b8 99 bd 80 b2 27 be fb c6 86 be
       -0.12729578 -0.07505887 -0.16376686 -0.26323685
0000c0 83 e4 7f bd a7 52 29 be 83 c9 67 3c a6 38 3d 3d
       -0.062473785 -0.16535436 0.014147165 0.046196602
0000d0 f2 0d 63 3e 7e bc 86 3d 13 05 0d bd b8 1e 92 3d
       0.22173288 0.06578921 -0.034428667 0.071347654
0000e0 17 fc 6e 3e a3 bf c9 bd 42 d0 ac bc 56 66 47 3d
       0.23338352 -0.09851005 -0.021095399 0.04868158
0000f0 40 63 17 bc 24 ce 82 bc 3e 4b 8d bc 1b a2 cc bd
       -0.009239972 -0.015967436 -0.017247792 -0.09991857
000100 5a 9a ab 3d 25 8c d2 3d 4b b9 01 bc 7d d1 43 3c
       0.083790496 0.10280637 -0.007917712 0.011951801
000110 c0 9d c5 bc 36 c1 68 bd ee 0f 3b bd 1b 07 8f 3d
       -0.024123073 -0.056824885 -0.04566949 0.06983777
000120 2b 41 85 bd 7d 0e cb bd 2d 20 79 3b 1f 2f 30 3d
       -0.065065704 -0.09914873 0.0038013563 0.04301369
000130 a7 84 df 3d 28 5b 5f bd ce 44 82 3b 4b 6a 91 3d
       0.10913973 -0.054530293 0.0039754873 0.07100352
000140 06 d7 22 be a8 a3 05 3d 60 c8 c0 bc 22 eb dc 3c
       -0.15902337 0.032626778 -0.023533046 0.026967589
000150 9e 1a f0 bd 02 56 03 3e 09 81 16 3d 0c 75 ea bd
       -0.11723827 0.12825778 0.03674415 -0.11448106
000160 a7 0d ef bd 03 46 0a bc 20 d7 be bd 52 28 73 3c
       -0.11672526 -0.008439544 -0.093183756 0.014841156
000170 a4 79 9e 3d cb 88 e6 3d 47 ce 3e bd 51 48 ab 3d
       0.07738045 0.1125656 -0.04658344 0.08363403
000180 c1 3b a7 bd 25 d9 ef 3c 77 7f 5d 3e 2a 7a 92 3d
       -0.08165694 0.029278347 0.21630655 0.07152207
000190 e5 cb d1 bb 1d 06 ae bd 4c cd c4 bd c8 83 ef 3d
       -0.00640248 -0.0849726 -0.0960947 0.11695057
0001a0 6b fd c6 3d e5 8b 29 bd 19 f3 ed 3d 8e a5 51 3d
       0.097163044 -0.04139318 0.11618633 0.051183276
0001b0 9e 1a 02 bd ab d7 44 3d 66 cd 55 be 1a 6f c7 3d
       -0.031763665 0.04805724 -0.20879135 0.09737988
0001c0 55 a3 8f 3c 2e 45 cd bd 12 85 eb bd c5 58 82 bd
       0.017533937 -0.100229606 -0.114999905 -0.06364588
0001d0 95 5f 85 3d b9 d5 30 bd b0 64 89 bc 14 31 26 3c
       0.065123715 -0.04317257 -0.016771644 0.010143537
0001e0 d0 da 8f 3d dc 1a d5 bd fd fe 90 3d 40 ab 24 3d
       0.07024157 -0.10405514 0.07079885 0.04020238
0001f0 df 62 5e bd 22 7b 1b bd 08 7c 86 3d cb 0f 37 3e
       -0.05429351 -0.037959225 0.06566626 0.17877118
000200 b6 b2 b1 3d 9f f3 09 3d 13 b7 69 3d 19 62 9e 3d
       0.086766645 0.0336796 0.05705936 0.077335544
000210 ee e7 02 3e 87 e0 6a bd 73 04 55 3d 00 27 c4 3d
       0.12783787 -0.057343032 0.052006196 0.09577751
000220 aa 9c ac 3d 96 03 66 3d dc c9 85 3d 2c 84 74 3c
       0.08428319 0.056155764 0.06532642 0.01492409
000230 ed 49 bb bc 31 42 9a bd 6b 70 85 3d 63 e4 97 bc
       -0.022862399 -0.07532156 0.06515583 -0.01854152
000240 25 4f 91 be ed 98 69 3d d8 08 ae 3d 24 ae 20 3d
       -0.28380695 0.057030607 0.084977806 0.039228573
000250 d9 aa 92 3c 04 68 4d 3c cd 18 6d bc 4b b6 1e 3e
       0.017903732 0.012537006 -0.014471245 0.15499227
000260 e4 c8 ae bc 31 5a 18 3d c5 e8 ed 3b e6 c7 9d bd
       -0.021336026 0.03719539 0.0072604143 -0.07704143
000270 3b 4b 80 bd d1 45 85 3e 0a ac d4 3d c9 ce cc 3d
       -0.06264349 0.26029828 0.10384376 0.10000379
000280 fb 3a 18 be 21 f3 8c 3d 38 85 d0 3d 8c d0 99 3d
       -0.1486625 0.06882311 0.101816595 0.0751048
000290 2f 99 d6 bd cb f4 66 3c 05 f4 49 3d ba b4 31 be
       -0.10478436 0.014096449 0.04930498 -0.17354098
0002a0 92 46 ec 3c d2 c5 52 3d 6f c6 49 bd 21 26 1f 3d
       0.028842244 0.051458187 -0.049261507 0.038854722
0002b0 5c 5b 66 be 06 f3 ea 3d 81 4f 5b be fb 92 65 bd
       -0.22495788 0.11472134 -0.21417047 -0.056048375
0002c0 74 60 c5 bc ce f7 e2 bc d0 ef e6 3d 59 e9 da bd
       -0.024093844 -0.027706053 0.11276209 -0.10689039
0002d0 d6 28 89 bd e1 48 78 3d 6e 9d 89 3c d7 7d aa bd
       -0.06697242 0.060616378 0.016798701 -0.08324783
0002e0 8c 41 a0 3d b1 b0 65 ba 1f 00 5e bc ab 10 22 3e
       0.07825002 -0.0008761986 -0.013549834 0.15826671
0002f0 fe b6 2c be 91 59 35 3e 43 20 10 be 15 ee 95 3d
       -0.16866681 0.17709948 -0.14074807 0.07320801
000300 ce 2d f8 bd 25 64 ed bd 7a b6 29 3e 88 5f 1c be
       -0.121181116 -0.11591367 0.16573516 -0.15270817
000310 07 5e 60 bd 23 b9 10 3e 93 2a 37 3e e5 a5 6b be
       -0.05477717 0.14133124 0.17887335 -0.23012502
000320 30 bd ba 3d 0d c2 b5 bd db 45 e1 3d c6 be 82 3c
       0.09118116 -0.08874903 0.10999652 0.015960108
000330 32 19 33 3e 92 95 3b 3d 36 72 36 3e 55 88 d9 bc
       0.1749008 0.04579694 0.17817006 -0.026554266
000340 0e 05 81 be 5a 0f 2f be 04 66 24 3e 58 78 b1 bd
       -0.2519917 -0.170957 0.16054541 -0.08665532
000350 c7 4c be 3d 1e 32 14 bc f3 f5 0c bc 36 c6 e0 bc
       0.09291988 -0.009045152 -0.008603561 -0.027438264
000360 46 e7 04 be 85 88 8f bd ce b6 68 3d c7 54 19 3d
       -0.12978849 -0.07008461 0.05681496 0.037434366
000370 1e e7 d1 3d 28 d5 5b 3d f4 3c c9 bd 48 c5 27 3d
       0.1024916 0.05367008 -0.09826079 0.040959626
000380 9c b2 98 bd 4f 9a 35 bd 63 63 f1 3c 20 64 1a 3e
       -0.07455942 -0.044336613 0.029466337 0.15077257
000390 29 0b 5d 3d da ed 9b 3b 1e 57 63 bc aa bf 81 3d
       0.05396572 0.0047585787 -0.013875751 0.06335385
0003a0 49 f2 8d bd d0 d4 3f 39 09 4c 44 bd cb 72 1a be
       -0.06930978 0.00018294458 -0.047924075 -0.15082853
0003b0 a9 69 96 bc 4a ee 43 be 3d 3f 12 3c fc 5c bf bc
       -0.01836093 -0.19133869 0.00892621 -0.023359768
0003c0 61 a1 dc 3d cd c2 18 bd 9f 8c 32 3d 44 10 93 bd
       0.10772968 -0.03729515 0.043591138 -0.07180837
0003d0 03 66 d6 bd d4 9f 47 3e 22 14 38 be 6c c3 af bc
       -0.10468676 0.19494563 -0.1797643 -0.02145549
0003e0 74 b4 19 3d 2f 0a d2 bd f9 e1 2c bd 49 8b 14 3e
       0.03752561 -0.102558486 -0.04220769 0.14506258
0003f0 e1 43 8c 3d 4f 40 11 bd a7 98 b6 bb d9 cc b1 3c
       0.068488844 -0.03546172 -0.005572397 0.021704124

lstm.weight_hh_l1 f4 [256, 64]
000000 b0 2e d9 3d e4 b8 d2 bd 25 11 99 bd 00 22 8e bc
       0.10604608 -0.10289171 -0.07473973 -0.017350197
000010 aa 48 44 3e 0a 88 e6 bc 52 0d c3 3d ca d1 b5 3c
       0.19168344 -0.02814104 0.09524025 0.022194762
000020 22 08 52 3d f6 b4 69 3c 17 88 b9 bc 3a 43 29 be
       0.051277287 0.014264336 -0.0226479 -0.16529551
000030 24 a8 5c bd f3 fa 50 bd 48 bc 3c bd 3c 20 a0 3d
       -0.05387129 -0.051020574 -0.046077996 0.07818648
000040 19 3e fc 3d f2 db a1 3d 92 45 3b 3d 2b 90 5b 3d
       0.12316532 0.07903279 0.045720644 0.053604286
000050 bf 68 ce bd 1c 8a cf bc e3 7b 26 3d b3 ee 9d bd
       -0.100785725 -0.02533441 0.04064549 -0.07711544
000060 8b 82 7a 3d b5 3d fe 3c 5c ca 1f 3e d7 08 fc 3c
       0.06115965 0.031035284 0.15604538 0.030765934
000070 4b 71 9d 3d 8d de c9 bd be 18 2b bd fb 72 2c 3e
       0.076876245 -0.09856901 -0.041771643 0.16840737
000080 c7 f0 65 bd 14 81 ea 3c f0 05 78 3c c8 6c 15 bd
       -0.056137826 0.028626002 0.015138134 -0.036480695
000090 cd 2a d3 3d 81 c7 03 3e fc 0c f0 bc 77 dd 06 3e
       0.10310898 0.12869073 -0.029303066 0.1317042
0000a0 0e c4 95 3c 5f 27 04 3d fd 72 8d bd 99 65 0f 3e
       0.018281963 0.03226411 -0.06906698 0.140036
0000b0 50 01 ba bd 80 35 a9 bd 16 0d d1 3d f3 f1 cf bd
       -0.090822816 -0.082621574 0.10207574 -0.1015357
0000c0 fc a9 14 3e 2f 1e ee bd 46 84 24 bd 7b cb b3 3d
       0.14517969 -0.11626851 -0.04016521 0.08779045
0000d0 c6 e8 b5 3c ea b4 98 3d ad a4 91 bd 34 ce 20 be
       0.022205722 0.074563816 -0.071114875 -0.1570366
0000e0 df 1f 90 3d 0b 92 59 3d 57 79 1b bc 26 58 a7 bb
       0.07037329 0.053117793 -0.009489379 -0.0051069437
0000f0 42 16 13 3e 13 47 4d 3e 63 b4 11 bd cf cc 18 be
       0.1436396 0.20046644 -0.03557242 -0.14921878
000100 5f 47 27 be 25 5f ba 3d d3 a8 a5 3d 2e 14 80 bc
       -0.1633582 0.09100179 0.08088841 -0.015634622
000110 af 60 87 bd d1 16 29 bd 8a a3 c2 3c 3f 66 4e 3c
       -0.06610238 -0.041281525 0.023759622 0.01259762
000120 28 e4 b5 3c 6b bc 8e bd 57 cb 12 be d1 20 99 3d
       0.02220352 -0.069695316 -0.1433538 0.07476962
000130 db e9 9c 3b 46 cb 9d 3d ea 9e 0f be f6 25 8e bd
       0.00478862 0.07704787 -0.14025465 -0.06940834
000140 03 77 5c 3d 17 65 76 bb 38 0c 18 3d 8b dc 9a bd
       0.053824436 -0.0037596875 0.037121028 -0.075615965
000150 7d 7b 0e 3d 7b a9 8d bd e7 e9 75 bd 24 e4 fc bc
       0.034785736 -0.069170915 -0.06003752 -0.030870505
000160 a0 04 50 b8 11 4c cb bd cb 99 c9 bd 07 3a 96 bd
       -4.9595372e-05 -0.09926618 -0.09843787 -0.073352866
000170 b2 75 c1 b9 84 7d d5 bd de 80 13 bb 01 8e e0 bc
       -0.00036899518 -0.10424331 -0.002250723 -0.027411463
000180 f7 25 cf 3b fb 04 61 bd f5 56 d1 3c db f9 be 3d
       0.0063216644 -0.05493639 0.02555416 0.09325
000190 6e a8 3b 3d 88 79 dc bd 3d fa 9c bd f1 0f 81 bd
       0.045814924 -0.10765368 -0.07664917 -0.06301869
0001a0 6b 53 02 be 3b 67 af 3d f3 4b 1a 3e 46 d8 2e 3d
       -0.12727134 0.085646115 0.15068035 0.042686723
0001b0 c9 c5 a1 3d 9b a9 60 3e a9 ed d0 3c 0a 01 7f 3c
       0.07899053 0.219397 0.02550395 0.015564213
0001c0 71 2b c2 3d be f5 ab 3d 1f 07 75 3d 9d ac ba bd
       0.09480942 0.08396481 0.059821244 -0.091149546
0001d0 4b 43 a9 3d e6 7a 42 bd 98 c3 a9 bd 4f 8e e8 38
       0.08264788 -0.047480486 -0.0828926 0.00011089129
0001e0 1a 3b cc 3d 74 e6 7e b9 9a 81 c6 3d aa 4e ac bd
       0.0997221 -0.00024309178 0.09692688 -0.084134415
0001f0 a1 16 ee bd f1 04 62 bd 25 cc a5 3d af 3c f1 bb
       -0.1162541 -0.055180494 0.08095578 -0.0073619704
000200 2a 98 8e 3c e3 77 ce 3c d2 de c0 3c d4 76 2e bb
       0.017406542 0.02520365 0.023543749 -0.002662112
000210 4e c0 ee 3c c9 84 fa 3d df 57 2e 3d 96 20 1f 3e
       0.029144432 0.12232358 0.04256427 0.15539774
000220 ac ae d1 bd a0 86 c1 bd a8 4c 81 3d d9 aa ba bc
       -0.10238394 -0.09449506 0.06313449 -0.022786545
000230 14 67 29 3d 9e 9d c6 3d e0 57 51 3d 4a e4 ef bd
       0.04135807 0.09698032 0.051109195 -0.117134646
000240 ea 31 00 3d 75 88 19 3a 68 0a 99 bc 19 1d 40 3d
       0.0312976 0.00058568205 -0.01868172 0.04690275
000250 9f 2e 06 3e 8a 09 01 3d 62 53 3d bc 67 00 bf bd
       0.13103722 0.031503238 -0.011555525 -0.093262486
000260 f6 cd 1a be c1 c5 0b bd ee 75 34 3e 1b 4a 06 3c
       -0.1511763 -0.03412414 0.17623112 0.008196379
000270 e0 34 68 3d 6a 93 49 3d 1a 9c 10 bd be 80 86 3c
       0.05669105 0.04921285 -0.03530512 0.016418811
000280 95 39 5c bd de ce b4 3b 79 8e ea 3d 99 7d 85 bd
       -0.053765852 0.0055178246 0.11452956 -0.065180965
000290 f3 69 ce bd 7a ee 31 bd f4 d4 00 3e b7 9f 1a 3d
       -0.10078802 -0.04344032 0.12581235 0.037749972
0002a0 2d e8 88 bb b5 da 00 bd e4 be ac 3c 90 f0 9d bd
       -0.004178068 -0.031458575 0.021087117 -0.07711899
0002b0 fe 1d 06 3e c2 79 db 3d 6c e5 00 be ab 63 81 bb
       0.13097379 0.10716583 -0.12587517 -0.003948649
0002c0 77 0e 44 3c 33 a2 65 bd ec ce 7e bd e5 c6 74 3b
       0.011966339 -0.05606289 -0.062209055 0.0037349996
0002d0 08 a1 ba 3d 19 b2 45 3d ba 8e 2f 3c 3c 7c 5a 3c
       0.091127455 0.04826555 0.010715181 0.013335284
0002e0 51 69 71 bd 1d 64 5f 3d 4a 45 ed 3d ba 11 0a be
       -0.05893833 0.054538835 0.115854815 -0.13483325
0002f0 0e 67 fb bc 95 cf 8a 3d 77 c3 90 bd 39 da ad 3d
       -0.030688789 0.067778744 -0.07068532 0.08488888
000300 7b 0a be bd 74 ae 30 bd 17 16 4b bd 60 01 fc bd
       -0.09279343 -0.04313512 -0.049581613 -0.1230495
000310 e7 90 16 3e 8b 3a 9d 3d 5f f4 ae 3c 18 63 fa bd
       0.14703713 0.07677182 0.02135676 -0.12225932
000320 72 c3 73 bd 1b 2e 9f bc 95 88 7d 3d e1 7e 44 bd
       -0.059512563 -0.019431164 0.061897833 -0.047972564
000330 b4 75 b5 3b 5d 41 17 3e 48 56 49 3d b1 83 91 bd
       0.005537713 0.14771028 0.04915455 -0.07105196
000340 3c 15 f3 3c 3e b9 b4 3d fd 9e c0 bd a1 ad cd bc
       0.029673211 0.08824395 -0.094053246 -0.025107207
000350 0e 93 11 3e 45 db d3 bd 16 78 af bd 47 46 7c 3d
       0.14216253 -0.10344557 -0.085678264 0.06159046
000360 50 fe 63 bc 72 ff f4 3d 4f ef a0 3d 58 10 f4 bd
       -0.013915613 0.11962785 0.078581445 -0.1191718
000370 64 d2 20 3e 2a 9e e3 bd 7b a6 53 3d 0f 26 7d bd
       0.15705258 -0.11114152 0.05167244 -0.061803874
000380 9d ab 98 bd a0 6c 4a 3d f7 5a 30 3e 62 02 5e 3d
       -0.07454608 0.04942 0.172222 0.05420149
000390 7a 55 77 3d 30 56 28 3e 85 4e 5c bd 96 eb c1 3d
       0.06038425 0.16439128 -0.05378582 0.094687626
0003a0 71 6a 59 bd a9 df 7d bd 28 d8 20 bd 16 08 0c bd
       -0.053080026 -0.061980877 -0.039268643 -0.0341874
0003b0 bb 46 13 3e 4d b1 a0 bd cf 8d 83 3d 7a 61 16 be
       0.1438245 -0.078463174 0.06423532 -0.14685622
0003c0 d2 ec 81 bd 8b 52 24 3d 58 de 0f 3e 02 fc 79 3d
       -0.06343998 0.04011778 0.14049661 0.06103135
0003d0 1e 7b 35 3d 51 87 b7 3c 0a 15 c4 3d f6 9f 98 3d
       0.044306867 0.022403391 0.095743254 0.07452385
0003e0 cc b9 15 3d 02 91 89 bc aa 34 cc bc e4 2f 9c 3d
       0.036554143 -0.016792778 -0.024927456 0.07626322
0003f0 f3 94 27 bd 1c b0 ba 3d ef df 27 be 76 76 08 be
       -0.040913533 0.091156214 -0.16394018 -0.1332644

lstm.bias_ih_l1 f4 [256]
000000 a3 c8 8d bd 7e 10 d8 3d b7 13 b9 bd b1 10 ee bb
       -0.06923034 0.10550021 -0.090369634 -0.0072651734
000010 d1 49 68 bd 40 00 3a bd 4c a6 ce 3d 7c 5a b9 3d
       -0.05671102 -0.045410395 0.10090312 0.09050462
000020 59 6b e6 3d 71 91 e6 bb df fc 9a 3d 3a ec d5 3d
       0.11250944 -0.007036381 0.075677626 0.10445447
000030 11 f9 a0 3c 2c 94 05 bb 2e 66 2c bd c9 c0 e3 3d
       0.019650014 -0.0020382507 -0.042089634 0.11120755
000040 3f db d9 bd 71 55 38 bd d2 83 d6 3d 3c 0f 0e 3e
       -0.10637521 -0.04500336 0.104743615 0.13872999
000050 c4 85 d4 bd c4 f3 b0 bd a8 60 2c 3d 99 81 70 bd
       -0.10377076 -0.086402446 0.042084366 -0.058717344
000060 38 c4 14 be 7f d2 9f 3d a3 96 a8 bd 6b 99 4c bd
       -0.14527977 0.07803821 -0.08231857 -0.049951
000070 15 cc cb bd 7d 3d 6e bd 5f 54 90 bd 32 85 04 3e
       -0.09951035 -0.05816411 -0.070473425 0.12941435
000080 b4 58 88 3c 46 8c d5 bd 99 e7 52 bc e4 bc 47 3d
       0.01664386 -0.10427146 -0.0128726 0.048764125
000090 94 ff b3 3d 31 1d bb bb 3a c2 0f 3e ec 38 1b 3e
       0.08788982 -0.005710267 0.14038935 0.15158433
0000a0 44 21 49 3d eb c3 d1 bd 2c ec 57 bd 42 5d 32 bc
       0.04910399 -0.102424465 -0.052715465 -0.010886492
0000b0 de 6c e9 3d 46 31 f9 3c c5 19 0d bd 6c 05 00 3d
       0.11397718 0.030419003 -0.034448404 0.03125517
0000c0 58 a9 1e 3e 8e ce d2 3d 26 52 3d 3d a3 e3 49 bd
       0.15494287 0.102933034 0.04622092 -0.049289357
0000d0 86 3a 3f bd b2 e4 aa bd d6 b6 7d 3c b0 b3 cd bd
       -0.04668667 -0.083444014 0.015485486 -0.10044038
0000e0 e7 33 68 bb a2 aa bc 3d cc 9d 35 bd 41 a8 67 bc
       -0.0035431327 0.09212233 -0.04433994 -0.014139236
0000f0 eb 83 a0 3c e1 85 d6 bc 88 df 5b 3d 2f e0 12 bd
       0.019594153 -0.026186885 0.053679973 -0.03585833
000100 33 63 37 3d e2 00 ac bd 49 fb 96 3d e5 91 44 3d
       0.044772338 -0.08398606 0.073721476 0.0479907
000110 22 ca db 3c de 96 62 bd 0c 6c a2 3c 16 7e b1 bd
       0.026829783 -0.05531966 0.019826911 -0.08666627
000120 88 73 5f bd 51 45 17 be 49 81 b6 bd c6 d5 d5 3d
       -0.05455354 -0.14772536 -0.08911378 0.10441165
000130 62 1d 18 bd cd 68 95 bd 47 1d e6 3c b5 ae 00 bc
       -0.037137397 -0.0729538 0.028090132 -0.007854153
000140 f4 20 d2 3d e8 9c ef bd b3 99 b8 3d 1a 5d 8a 3d
       0.102601916 -0.11699849 0.09013691 0.06756039
000150 21 fa 15 bd 98 9c 0a 3d 14 d5 ac bd 94 14 43 bd
       -0.036615495 0.033840746 -0.08439079 -0.047627047
000160 c9 65 1b bd 9f a6 04 3d 3c d4 0a bd f1 84 74 3b
       -0.037938867 0.032385465 -0.03389381 0.0037310685
000170 bc bc 8b 3d 53 40 97 bc c9 bd 57 3d 41 ec 98 3d
       0.068231076 -0.01846329 0.052671228 0.07466937
000180 58 e6 a3 bc 67 2c a6 bd 36 87 40 bd ca 95 1e bd
       -0.020007297 -0.08113938 -0.047003947 -0.03871707
000190 67 2a 96 3d 92 fa e6 3c 82 e5 f8 3d 14 7f bc bb
       0.07332306 0.028195653 0.1215315 -0.0057524536
0001a0 2a 8d 2f bd 65 21 bf bc 0d 04 00 3e 57 44 41 bc
       -0.042859234 -0.023331353 0.12501545 -0.011796079
0001b0 56 4d 8b 3c 6d 34 9b bd 79 11 c4 3d 2a 37 d9 bc
       0.01700465 -0.07578359 0.09573645 -0.026515562
0001c0 19 7d e5 3d 52 84 5f bd 37 8a 89 3d 0a f5 65 3d
       0.11205501 -0.05456955 0.067158155 0.05614189
0001d0 fd 64 a4 3d 87 3d f1 3c b0 5b 16 bd f8 91 50 3d
       0.080270745 0.029448284 -0.036708534 0.050920457
0001e0 a3 3c 52 3d 50 05 4c bd 3b 48 4d 3d 21 69 17 3d
       0.05132736 -0.049809754 0.050117712 0.036965493
0001f0 a1 78 07 be d0 6c b0 3d 8f 1c 26 bd f5 75 a1 3c
       -0.1322961 0.08614504 -0.04055458 0.019709567
000200 59 fd 98 bd 4b 2f f4 bd 70 74 19 3e e2 a5 e3 bd
       -0.07470197 -0.11923083 0.14985824 -0.11115624
000210 2f 64 c6 bd df 63 fa 3d 88 6a af bd b2 c1 85 bd
       -0.09687077 0.1222608 -0.08565241 -0.06531085
000220 d5 77 20 bc 8e 8c 82 3c fb 52 c2 3d 2e 1a 12 be
       -0.009794195 0.015936162 0.094884835 -0.142678
000230 a2 6f 4c bd aa ea ce 3d a7 76 0a bd 4c b6 aa 3d
       -0.04991115 0.10103352 -0.033804562 0.083355516
000240 78 f5 8f 3c 98 be d2 3d 90 de 89 3d 16 c9 b3 bd
       0.017573103 0.10290259 0.067319036 -0.087785885
000250 c0 1b da 3d 7f a0 10 3d eb 79 b5 3d 2e a4 ab bd
       0.10649824 0.03530931 0.08861145 -0.08380924
000260 01 38 1a 3d 2f 75 0b 3d 87 13 73 3d 65 2e 8a bd
       0.037651066 0.0340473 0.059344795 -0.0674713
000270 a5 65 cd 3b a2 a1 d9 bd 6d 58 a4 bc 40 80 ae 3d
       0.0062682205 -0.10626532 -0.020061696 0.085205555
000280 08 11 23 3c 9d 7c 20 bd 43 0f 4c bc f9 80 29 bd
       0.009952791 -0.03918134 -0.012454811 -0.041382764
000290 74 e4 50 bd 4b 7b cb 3d cd f5 b7 bd 95 54 f9 3a
       -0.05099912 0.09935626 -0.0898243 0.00190224
0002a0 32 07 05 3d 5f 49 aa bd e7 9b a8 bd 52 2d 4a 3d
       0.032477565 -0.08314776 -0.08232861 0.049359627
0002b0 25 64 c7 3d 7f e7 88 3d d3 dd b4 bd 8d 0b a9 bd
       0.09735898 0.066847794 -0.08831372 -0.08254156
0002c0 22 96 94 3d f2 29 c1 3a ca 88 9b 3c a5 e3 a1 bd
       0.07255198 0.0014737232 0.018986125 -0.07904748
0002d0 74 58 18 3d cf fb 04 3d 16 f4 a3 3d 69 8e f8 3d
       0.03719373 0.032466706 0.0800554 0.121365376
0002e0 37 c6 75 3d 24 7b f4 3d ab f4 6c bd 89 bd 4d 3d
       0.060003486 0.1193755 -0.05785052 0.050229583
0002f0 2e 4d a4 3d 98 10 7e 3d f2 66 36 3c a5 9a f3 3d
       0.08022533 0.062027544 0.0111329425 0.118947305
000300 5d 17 07 3e fd 7e f9 3d 10 de 3a bd a0 45 ea 3c
       0.13192506 0.12182424 -0.04562193 0.028597653
000310 64 5e a0 3d af fb a1 3d d1 ac 8f bc be 61 7e bc
       0.078305036 0.07909333 -0.01753846 -0.015526233
000320 55 ab 03 3e fb d8 0a 3d 51 2c 5f 3d 94 a0 4d 3d
       0.12858327 0.033898335 0.054485623 0.050201967
000330 b0 4d a5 bc 48 b0 1b 3d 76 69 f9 3d e0 da 75 bd
       -0.020178646 0.03800991 0.12178318 -0.06002319
000340 6e 8b 9d 3d 51 0d 1d 3d 8f 51 c8 bd 56 08 6a bd
       0.0769261 0.038342778 -0.09781181 -0.057136856
000350 01 a4 58 3c 34 cb 9a bc ac fd cd bc 25 37 94 3c
       0.013222695 -0.018895723 -0.025145374 0.018092701
000360 7b a6 24 3d 51 9e 36 bd 99 99 c6 3c 14 85 ed 3d
       0.04019783 -0.044584576 0.024243163 0.11597648
000370 4f e9 01 3e c3 da 08 be 95 30 1c 3d 5d 3e d4 bd
       0.12686656 -0.13364701 0.03813227 -0.10363457
000380 d1 05 29 3b 3f 9e 3b 3d 9d c2 41 bd c7 64 f0 3d
       0.002579082 0.045805212 -0.04730474 0.11737972
000390 87 cd af bc 35 ad ad 3d 26 50 b2 bc 57 46 44 3e
       -0.021460308 0.08480302 -0.021766733 0.19167458
0003a0 b3 08 72 bc f9 90 1d 3e a0 d1 ae bc 99 93 07 3d
       -0.014772582 0.15387334 -0.021340191 0.033099744
0003b0 e4 e8 83 3d a2 e6 0a 3e 7f ca 8d 3d c1 41 af bd
       0.06440905 0.13564542 0.06923389 -0.085574634
0003c0 17 8b 35 bd 54 ec 63 bd 42 37 8c 3d f8 a2 58 3d
       -0.0443221 -0.055645302 0.06846477 0.052889794
0003d0 f1 7a be bd 1b 8d 91 3d 10 4d f6 bd 00 70 62 bd
       -0.09300793 0.07106992 -0.12026417 -0.055282593
0003e0 d7 05 f2 3d 94 52 1d bd 20 56 b0 bd 4d 1e 5e 3d
       0.1181752 -0.03840883 -0.08610177 0.054228116
0003f0 54 9b fb bd 42 45 ba bd fc 2c 99 bd 90 15 59 bd
       -0.12285486 -0.09095241 -0.07479283 -0.05299908
